…
I have tried different pre-processing data augementation techniques like adjusting brightness, crop image, and randomly choosing data between left, right, center images. I have ensured the images with zero steering angel will not distort the model much.
So eliminated 80% of the zero steering angle images and arrived at final data set for training of the images.

2. Final Model Architecture

I have used reference model described in Nvidia paper and made modifications in the output layer. The overall model architecture looks as mentioned below

Layer (type)                     Output Shape          Param #     Connected to                     
====================================================================================================
lambda_1 (Lambda)                (None, 66, 200, 3)    0           lambda_input_1[0][0]             
____________________________________________________________________________________________________
lambda_2 (Lambda)                (None, 66, 200, 3)    0           lambda_1[0][0]                   
____________________________________________________________________________________________________
convolution2d_1 (Convolution2D)  (None, 33, 100, 24)   1824        lambda_2[0][0]                   
____________________________________________________________________________________________________
dropout_1 (Dropout)              (None, 33, 100, 24)   0           convolution2d_1[0][0]            
____________________________________________________________________________________________________
convolution2d_2 (Convolution2D)  (None, 17, 50, 36)    21636       dropout_1[0][0]                  
____________________________________________________________________________________________________
dropout_2 (Dropout)              (None, 17, 50, 36)    0           convolution2d_2[0][0]            
____________________________________________________________________________________________________
convolution2d_3 (Convolution2D)  (None, 7, 23, 48)     43248       dropout_2[0][0]                  
____________________________________________________________________________________________________
dropout_3 (Dropout)              (None, 7, 23, 48)     0           convolution2d_3[0][0]            
____________________________________________________________________________________________________
convolution2d_4 (Convolution2D)  (None, 5, 21, 64)     27712       dropout_3[0][0]                  
____________________________________________________________________________________________________
dropout_4 (Dropout)              (None, 5, 21, 64)     0           convolution2d_4[0][0]            
____________________________________________________________________________________________________
convolution2d_5 (Convolution2D)  (None, 3, 19, 64)     36928       dropout_4[0][0]                  
____________________________________________________________________________________________________
dropout_5 (Dropout)              (None, 3, 19, 64)     0           convolution2d_5[0][0]            
____________________________________________________________________________________________________
flatten_1 (Flatten)              (None, 3648)          0           dropout_5[0][0]                  
____________________________________________________________________________________________________
dropout_6 (Dropout)              (None, 3648)          0           flatten_1[0][0]                  
____________________________________________________________________________________________________
dense_1 (Dense)                  (None, 1164)          4247436     dropout_6[0][0]                  
____________________________________________________________________________________________________
dense_2 (Dense)                  (None, 100)           116500      dense_1[0][0]                    
____________________________________________________________________________________________________
dense_3 (Dense)                  (None, 50)            5050        dense_2[0][0]                    
____________________________________________________________________________________________________
dense_4 (Dense)                  (None, 10)            510         dense_3[0][0]                    
____________________________________________________________________________________________________
dropout_7 (Dropout)              (None, 10)            0           dense_4[0][0]                    
____________________________________________________________________________________________________
dense_5 (Dense)                  (None, 1)             11          dropout_7[0][0]                  
====================================================================================================